imrpovedweights.pth (torch, 66146 bytes, 14 tensors)

encoder.weight_ih_l0 f4 [128, 9]
0	0xbe0fdb26	-0.14048442
1	0xbcc2b674	-0.023768641
2	0x3c744e4d	0.0149112465
3	0x3d393c54	0.04522355
4	0x00e10bfc	2.0667286e-38
5	0x82071df4	-9.92683e-38
6	0x3db69bc6	0.0891643
7	0x3cd8f59b	0.026484301
8	0x3de9731c	0.113989085
9	0x3ca5fb23	0.020261353
10	0x3e32f238	0.17475212
11	0x3da1eb97	0.07906263
12	0xbd6c9040	-0.057754755
13	0x81ea1bca	-8.59979e-38
14	0x011772bc	2.7816638e-38
15	0xbd5d67e5	-0.05405416
16	0xbe4b25c1	-0.1983862
17	0xbcf2a98d	-0.029621864
18	0x3e69dd40	0.22838306
19	0xbd89e562	-0.067332044
20	0xbd631b41	-0.055445913
21	0x3e07473c	0.13210768
22	0x812fbe5e	-3.2279005e-38
23	0x01c7d972	7.3413074e-38
24	0xbd5c51e6	-0.053789042
25	0xbd2bdba4	-0.041957512
26	0xbdd7fce1	-0.1054628
27	0xbd2d9f6e	-0.042388372
28	0x3e5dd34b	0.21662633
29	0xbd2c4688	-0.04205945
30	0x3e0aed2a	0.13567033
31	0x81891eeb	-5.0370217e-38
32	0x81960d36	-5.5120254e-38
33	0x3e183028	0.1486212
34	0xbda9c333	-0.082891844
35	0x3e14242f	0.14466928
36	0xbcc78cf6	-0.024359208
37	0x3d625172	0.055253454
38	0x3d74d5a9	0.059774075
39	0xbe049018	-0.12945592
40	0x0198190e	5.5871933e-38
41	0x81ee7e41	-8.760856e-38
42	0xbdaddf0b	-0.08489808
43	0x3b8658cc	0.004099941
44	0xbc8477f2	-0.016170476
45	0x3ce4da71	0.027936192
46	0x3d81ec3e	0.06343888
47	0x3e26e7e3	0.16299395
48	0x3e1c71cc	0.15277785
49	0x019cfacb	5.766522e-38
50	0x014b56a4	3.7347373e-38
51	0x3cd0c9cb	0.025486847
52	0x3bdef0f6	0.006803627
53	0x3d286ef7	0.04112145
54	0x3e07ab6a	0.13248983
55	0x3dafb543	0.08579495
56	0x3c0e36bf	0.008680045
57	0xbe2e7616	-0.17037234
58	0x014ce6a1	3.763435e-38
59	0x80a53682	-1.517241e-38
60	0xbe03cb95	-0.12870629
61	0xbcccfbe6	-0.025022458
62	0xbd52b731	-0.051444236
63	0xbbdb2de7	-0.0066888216
64	0x3cb006ef	0.021487681
65	0x3e252df0	0.16130805
66	0xbd8cee64	-0.06881407
67	0x00ee38ee	2.187727e-38
68	0x8089cbb1	-1.2654534e-38
69	0xbd4cfd57	-0.05004629
70	0x3cdfc6ba	0.02731644
71	0xbd161b01	-0.036646847
72	0xbd2c759f	-0.04210436
73	0x3e232428	0.15931761
74	0xbe1d5335	-0.15363772
75	0x3e226384	0.15858275
76	0x01266132	3.055912e-38
77	0x0124425e	3.016966e-38
78	0x3bf5d02d	0.007501623
79	0xbdd51d9f	-0.104060404
80	0x3e2daeb6	0.16961178
81	0xbd63661a	-0.055517294
82	0x3d74a425	0.059726853
83	0x3d42e78b	0.047584098
84	0x3a388f8f	0.0007040435
85	0x810d619c	-2.596764e-38
86	0x818e4899	-5.2266734e-38
87	0x3d229098	0.039688677
88	0x3d94ed2f	0.07271802
89	0x3dc1c722	0.0946181
90	0xbe2889cd	-0.16458817
91	0xbe0ed069	-0.1394669
92	0x3c953fbf	0.018218873
93	0xbd896a92	-0.0670978
94	0x00924b01	1.3434889e-38
95	0x0177b7aa	4.5498508e-38
96	0x3d86faec	0.06590828
97	0xbcc931d9	-0.024559902
98	0xbd6321cd	-0.055452157
99	0xbdc49ecf	-0.09600603
100	0x3e01edc7	0.12688361
101	0x3da3211f	0.07965302
102	0x3ceeab7f	0.02913451
103	0x8184e505	-4.881777e-38
104	0x01ca5e83	7.43387e-38
105	0x3dcba2d9	0.0994317
106	0x3daad479	0.08341307
107	0x3d5040d0	0.05084306
108	0x3d68170b	0.0566626
109	0x3dc6bba9	0.09703762
110	0x3d0da402	0.03458024
111	0x3e0afba8	0.13572562
112	0x0100fa6e	2.3689562e-38
113	0x01a90264	6.2084226e-38
114	0x3cc65d58	0.024214432
115	0x3cbac430	0.022798628
116	0xbd9a8e0e	-0.07546626
117	0xbdf59770	-0.11991775
118	0xbd5d8636	-0.05408307
119	0x3cc2360b	0.02370741
120	0xbe54d187	-0.20783053
121	0x8112d5b0	-2.6969278e-38
122	0x8066bae3	-9.434263e-39
123	0xbe2ce4d4	-0.16884166
124	0xbd104dba	-0.035230376
125	0x3d10d3bc	0.035358176
126	0x3bcf5073	0.006326729
127	0xbcc19151	-0.023628863
128	0x3e1d0b97	0.15336452
129	0xbca0d941	-0.019634845
130	0x0110ec06	2.6617961e-38
131	0x80fdc647	-2.3305509e-38
132	0xbcf83723	-0.030299729
133	0x3daf3494	0.0855495
134	0xbd5cf7b7	-0.053947177
135	0xbddd085f	-0.10792612
136	0xbdb96dbe	-0.09054135
137	0x3e2352af	0.1594951
138	0x3dd11c64	0.10210493
139	0x818400cb	-4.849028e-38
140	0x01c9ea58	7.4172006e-38
141	0xbd97ae62	-0.07406308
142	0xbe44c435	-0.19215472
143	0x3db1912d	0.08670268
144	0x3c86e2d6	0.016465586
145	0xbe2b0451	-0.16700865
146	0xbd55399e	-0.0520569
147	0x3d142cc0	0.03617549
148	0x013db17a	3.484115e-38
149	0x01badadd	6.863966e-38
150	0x3d49c0d5	0.049256165
151	0xbe0440fc	-0.12915415
152	0xbd0cf903	-0.034417164
153	0x3d941bf0	0.07231891
154	0x3e42fca5	0.19041689
155	0x3da1d8d6	0.07902686
156	0x3c82ff18	0.015990779
157	0x81287f90	-3.0948248e-38
158	0x00b6f2df	1.6801186e-38
159	0xbe2962d0	-0.165416
160	0xbd3190ed	-0.043351103
161	0x3dd5dcf6	0.104425356
162	0xbdf004d5	-0.11719672
163	0x3e0fefd2	0.14056328
164	0x3e2c1bda	0.168075
165	0x3dccd6dd	0.100019194
166	0x815f3a24	-4.1000345e-38
167	0x81db6ed0	-8.06069e-38
168	0xbe07a65d	-0.13247056
169	0x3dc2d0e5	0.095125
170	0xbe0f4548	-0.13991272
171	0x3e420a01	0.18949129
172	0x3d0dfe31	0.034666244
173	0x3e4dbd76	0.20091805
174	0x3b9fae92	0.0048731053
175	0x0157d974	3.9645278e-38
176	0x01874b8e	4.9699584e-38
177	0xbd6b0def	-0.057386335
178	0xbe59e51c	-0.21278805
179	0x3c40381c	0.0117321275
180	0xbc986f91	-0.018607887
181	0x3dec09c2	0.11525299
182	0x3df61850	0.12016356
183	0xbe1e1245	-0.15436657
184	0x019cf21e	5.765277e-38
185	0x815cc6b4	-4.055018e-38
186	0x3c27ae12	0.010234373
187	0xbd2e3139	-0.04252741
188	0xbd162cf0	-0.03666395
189	0xbd904f33	-0.07046356
190	0xbe075672	-0.1321657
191	0xbd346204	-0.044038787
192	0xbcb3d02e	-0.021949854
193	0x81c1af7d	-7.1148816e-38
194	0x01d21780	7.717554e-38
195	0x3dcab449	0.09897668
196	0xbe4dff1c	-0.20116848
197	0xbd3aa110	-0.045563757
198	0x3d7ec9cc	0.062204167
199	0x3e1372e8	0.14399302
200	0xbd06b0e8	-0.032883555
201	0x3d2b9b97	0.04189643
202	0x80c41ebd	-1.8010784e-38
203	0x01893279	5.0398277e-38
204	0xbe25ccd5	-0.16191418
205	0xbdb4b212	-0.08823027
206	0x3d7b572c	0.06136243
207	0x3da78821	0.081802614
208	0x3e6fd8d3	0.23422556
209	0xbcb32908	-0.021870151
210	0xbd5496ca	-0.051901616
211	0x013faca5	3.5205026e-38
212	0x818d4e0e	-5.1907223e-38
213	0x3c4db6da	0.012555802
214	0xbdaf8269	-0.08569796
215	0x3d635294	0.055498675
216	0xbdc0b264	-0.09409025
217	0xbd081d2a	-0.033230938
218	0xbd8c76ff	-0.06858634
219	0xbd57fd2a	-0.05273167
220	0x01b7b35c	6.748095e-38
221	0x01b2630f	6.5529015e-38
222	0x3db42a45	0.08797125
223	0x3cd1b6c0	0.025599837
224	0x3dddb107	0.10824781
225	0x3e1d196c	0.15341729
226	0x3e11f160	0.14252234
227	0x3e5c8ad1	0.2153733
228	0x3dae2434	0.08502999
229	0x80a3016a	-1.4969693e-38
230	0x81696b37	-4.2872264e-38
231	0x3e52aeb7	0.20574461
232	0x3e160611	0.14650752
233	0xbd437118	-0.047715276
234	0x3bb93832	0.005652451
235	0x3ccdc436	0.025117975
236	0x3e79272e	0.24331352
237	0x3ddc5bb6	0.1075968
238	0x811b8a49	-2.8568219e-38
239	0x019868a8	5.5986156e-38
240	0x3d33f08a	0.043930568
241	0x3d715fe5	0.058929343
242	0x3d51b104	0.051194206
243	0x3df2ad9f	0.11849522
244	0x3ce77f1b	0.02825885
245	0xbc4d7834	-0.012540866
246	0x3e4f126f	0.20221876
247	0x02044389	9.71721e-38
248	0x01a989ec	6.2278704e-38
249	0x3cc4247a	0.023943175
250	0xbd76595f	-0.060143825
251	0x3dbd15ab	0.092326485
252	0xbb9b4ad6	-0.0047391457
253	0x3c243c2e	0.010024114
254	0xbdbab529	-0.09116585
255	0x3d73f018	0.059555143

encoder.weight_hh_l0 f4 [128, 32]
0	0x3dcc21b9	0.099673696
1	0x3de3e4ce	0.111276254
2	0xbd933185	-0.071871795
3	0x3e19986c	0.1499955
4	0x3e13e263	0.14441828
5	0xbcdbf5d1	-0.026850613
6	0xbdfb1379	-0.122595735
7	0x3d3995e0	0.045308948
8	0x3e0dc5fd	0.13845058
9	0xbbac0657	-0.005249779
10	0x3db58bd7	0.08864563
11	0xbdd060ba	-0.10174699
12	0xbd921385	-0.07132629
13	0xbd33101b	-0.04371653
14	0x3bf49b0e	0.007464773
15	0xbcee7e48	-0.02911295
16	0xbe464618	-0.19362676
17	0xbc845a26	-0.016156267
18	0xbd82845a	-0.063729
19	0xbdb89ee9	-0.09014685
20	0x3cbcb54c	0.023035668
21	0x3d6ccfcc	0.057815358
22	0x3e4dbe73	0.20092182
23	0xbe3c6bd1	-0.18400504
24	0x3d88c51a	0.06678219
25	0x3de82b7f	0.11336421
26	0x3d179259	0.037004802
27	0x3c99de35	0.018782714
28	0x3d224135	0.039612968
29	0x3e2ae8c7	0.1669036
30	0x3db47bfd	0.088127114
31	0x3d4c39a4	0.049859658
32	0x3ca42eea	0.020041902
33	0x3e830b38	0.25594497
34	0xbe797a63	-0.24363093
35	0x3b45edc5	0.0030201536
36	0xbd884d5d	-0.06655381
37	0x3bdb85fa	0.006699321
38	0xbdf99a30	-0.12187612
39	0xbc20c8b0	-0.009813473
40	0xbc1034d4	-0.008801658
41	0x3e0fc79c	0.14040989
42	0x3dca2e67	0.09872132
43	0xbdfb167a	-0.122601464
44	0x3c99fe12	0.018797908
45	0x3d126d62	0.035748847
46	0x3e2519d2	0.16123131
47	0xbc659384	-0.014012221
48	0xbd56eb1c	-0.05247031
49	0x3c73d62b	0.014882605
50	0xbd959949	-0.073046274
51	0x3e254aa5	0.16141756
52	0xbb7ac36e	-0.0038263458
53	0xbe29effe	-0.16595456
54	0x3e8784cb	0.264685
55	0xbe084a0c	-0.13309497
56	0x3e30e156	0.17273459
57	0x3ccced15	0.025015393
58	0xbda06ab2	-0.078328505
59	0xbdb8bde9	-0.090205975
60	0xbc4c3e63	-0.012466046
61	0xbcd224f1	-0.02565238
62	0x3c22a952	0.009928064
63	0x3d894976	0.06703465
64	0x3e18ef66	0.14935073
65	0x3d829cce	0.06377564
66	0xbe1b7b80	-0.1518383
67	0xbdbcd9e3	-0.09221246
68	0xbddc64f3	-0.10761442
69	0x3daa37d9	0.08311433
70	0xbe4b05e3	-0.19826464
71	0x3d2e7aca	0.04259757
72	0x3d7a84ef	0.06116193
73	0x3df3525b	0.118809424
74	0xbb967eaf	-0.0045927386
75	0x3d7936c1	0.060843233
76	0x3d02bf0c	0.031920478
77	0xbbb222c0	-0.0054362714
78	0x3e5a66b7	0.21328245
79	0x3d001ace	0.031275563
80	0xbdb3a22d	-0.08771167
81	0x3dd88dcf	0.10573923
82	0x3d2eb164	0.04264964
83	0x3e07de65	0.1326843
84	0xbd83be57	-0.06432789
85	0xbe1541e7	-0.14575921
86	0x3e5b3d63	0.21410136
87	0xbe67da4d	-0.22641869
88	0xbd313947	-0.043267515
89	0x3de714af	0.11283242
90	0xbe8b3a1b	-0.27192768
91	0xbc4b8cf8	-0.012423746
92	0xbd61554a	-0.05501298
93	0x3e5e50d4	0.21710521
94	0x3a82a112	0.0009966216
95	0x3d3c798e	0.04601436
96	0xbb4c988c	-0.0031218855
97	0x3c214af6	0.009844532
98	0x3de194b8	0.11014694
99	0x3dc877e7	0.097884946
100	0xbb0c7423	-0.0021431528
101	0xbde916f6	-0.113813326
102	0x3da82276	0.08209698
103	0x3c51e02e	0.012809796
104	0x3e663e36	0.22484669
105	0xbc0bd027	-0.008533514
106	0x3c7c10d0	0.015384868
107	0x3e327c0e	0.17430136
108	0x3da85cec	0.082208484
109	0xbbb32b8b	-0.005467837
110	0x3da6c4e8	0.08143026
111	0xbabee388	-0.0014563659
112	0x3dc6423a	0.096806005
113	0xbd3380ff	-0.043824192
114	0xbb6afd57	-0.0035856569
115	0xbcf12a89	-0.029439228
116	0xbe7ab08f	-0.24481414
117	0xbd9a2889	-0.07527263
118	0xbd598fef	-0.05311578
119	0xbc6a3cf0	-0.014296755
120	0xbdf561d4	-0.1198155
121	0x3d8270d2	0.06369175
122	0xbd0c01a4	-0.034181252
123	0xbd8f12ca	-0.069860056
124	0xbdd08fda	-0.101836875
125	0xbcf988c2	-0.030460719
126	0xbcd4fad5	-0.025998512
127	0x3e3213df	0.17390393
128	0x3c9edf5c	0.019393615
129	0x3e1afe04	0.15135962
130	0x3d98a69c	0.07453653
131	0xbd0fe08a	-0.035126247
132	0xbd65d964	-0.056115523
133	0xbda26826	-0.07930021
134	0xbd95affb	-0.07308956
135	0xbdc635e6	-0.09678249
136	0xbd17e27a	-0.03708122
137	0x3ce6af48	0.028159752
138	0x3d31d3b4	0.043414786
139	0x3cb1ed8e	0.02171972
140	0x3e1bd681	0.15218545
141	0xbdd0d26b	-0.10196384
142	0x3d8609b2	0.06544818
143	0xbdca2f57	-0.098723106
144	0x3c43228b	0.011910091
145	0x3df05049	0.11734063
146	0x3e19c4db	0.150165
147	0x3bacbce4	0.005271541
148	0xbe5e3336	-0.21699223
149	0x3de55aee	0.11198984
150	0xbd41f8e1	-0.04735649
151	0x3cf87a34	0.030331708
152	0xbc5d29d5	-0.013498743
153	0xbdcce275	-0.10004131
154	0xbd95e8bf	-0.073197834
155	0x3d2960eb	0.041352194
156	0xbd973d77	-0.0738477
157	0x3ce99469	0.02851315
158	0xbc416174	-0.01180302
159	0xbde52ef9	-0.111906
160	0x3dcffb57	0.10155361
161	0x3d4b82d8	0.04968533
162	0xbde65f3c	-0.11248633
163	0xbb23e787	-0.0025009827
164	0xbcd69abf	-0.026196836
165	0xbc6d52b5	-0.014485051
166	0xbe09e74b	-0.13467138
167	0xbd7e81c2	-0.062135465
168	0x3ddfe00b	0.10931405
169	0x3d201c4d	0.03908949
170	0xbd28f193	-0.041246008
171	0x3e30e670	0.17275405
172	0x3da75250	0.08169997
173	0x3d5b8d86	0.053601764
174	0x3d6ff4ab	0.058582943
175	0x3dececf4	0.11568633
176	0x3b89d2a3	0.004206018
177	0x3d63550c	0.05550103
178	0x3d9b087a	0.07569976
179	0xbd89cd23	-0.0672858
180	0xbde9a135	-0.11407701
181	0xbe18322f	-0.14862894
182	0x3e1c3aa1	0.1525674
183	0xbd677bd9	-0.056514595
184	0xbc1ea7af	-0.009683534
185	0x3d0425ac	0.03226249
186	0xbe25f85c	-0.16208023
187	0xbd8533fc	-0.06504056
188	0x3d3b776d	0.04576819
189	0x3db8fd97	0.090327434
190	0x3e415058	0.18878305
191	0xbce04d03	-0.027380472
192	0x3ddb9315	0.10721413
193	0xbcde4264	-0.027131267
194	0x3c979291	0.018502505
195	0x3b11d0c7	0.0022249685
196	0x3cd769bc	0.026295535
197	0xbde42fbc	-0.11141917
198	0x3c4ff190	0.01269187
199	0x3e88c19c	0.26710212
200	0xbd9f5b05	-0.077810325
201	0x3dcb195a	0.09916945
202	0xbe016672	-0.12636736
203	0x3dbe9598	0.093058765
204	0x3c5576de	0.013028828
205	0xbe11b323	-0.14228491
206	0xbd428961	-0.047494296
207	0xbddbf74e	-0.10740529
208	0xbcba5ce2	-0.022749368
209	0xbde571c8	-0.11203343
210	0xbe363fc4	-0.17797762
211	0x3e12e8e3	0.14346652
212	0xbbcdb35a	-0.006277484
213	0xbccc3706	-0.024928581
214	0xbd963e64	-0.07336119
215	0x3d30781d	0.0430833
216	0xbcfa5f52	-0.03056303
217	0xbd354d94	-0.044263437
218	0x3d44afef	0.048019346
219	0xbdc40f42	-0.09573223
220	0xbe1b024d	-0.15137596
221	0x3e640106	0.22266015
222	0x3e4f2883	0.20230298
223	0x3d2029f4	0.03910251
224	0x3e243ada	0.16038075
225	0xbd35144f	-0.04420882
226	0xbd817df2	-0.0632285
227	0x3e6439df	0.22287701
228	0x3c5be5e0	0.013421506
229	0x3bb733d5	0.0055908957
230	0xbdea4803	-0.114395164
231	0x3df1e674	0.118115336
232	0x3e4ac1e0	0.1980052
233	0xbda408eb	-0.080095135
234	0x3dbeef21	0.09322954
235	0xbd50bf47	-0.050963666
236	0x3dfbadc9	0.12289006
237	0xbd2f9a08	-0.042871505
238	0x3da2dadf	0.079519026
239	0x3d3f1cc5	0.046658296
240	0xbe31fa79	-0.17380704
241	0x3da332cc	0.07968673
242	0xbd9a3ae5	-0.075307645
243	0xbde8846d	-0.11353383
244	0xbe813161	-0.25232986
245	0x3d225bb7	0.039638247
246	0x3de09566	0.109659955
247	0xbd7be9ea	-0.061502375
248	0xbc7e94df	-0.015538423
249	0x3a9107aa	0.0011064906
250	0xbcf723b6	-0.030168395
251	0x3e122a43	0.14273934
252	0x3d8acd32	0.06777419
253	0xbc9d2104	-0.019180782
254	0xbd0e6a4d	-0.034769345
255	0x3db5021d	0.08838294

encoder.bias_ih_l0 f4 [128]
0	0x3e2ecac2	0.17069533
1	0x3e25a773	0.16177158
2	0x3e53627e	0.2064304
3	0x3d0e4bd7	0.034740295
4	0x3e7f6e90	0.2494452
5	0x3e2f082c	0.17092961
6	0xbd6fc461	-0.05853689
7	0x3e7d7d5a	0.24754849
8	0xbdf1c6f3	-0.11805525
9	0x3e8269ff	0.25471494
10	0x3d3b2dbb	0.04569791
11	0x3d206dd5	0.039167244
12	0x3e6023d4	0.21888667
13	0x3e886955	0.26642862
14	0x3de29ff2	0.110656634
15	0xbd26cb37	-0.040721145
16	0x3db8c591	0.09022058
17	0x3e4d24f3	0.20033626
18	0x3c0e7e08	0.00869704
19	0x3df9a6d2	0.121900216
20	0xbd0d43f2	-0.034488626
21	0xbdc13b43	-0.094351314
22	0x3e3433f4	0.17597944
23	0x3cd24f26	0.025672507
24	0x3d65d1e0	0.056108356
25	0xbd9b4419	-0.07581348
26	0x3e88c692	0.26713997
27	0x3e992dd7	0.29917786
28	0x3e2b4c8f	0.16728424
29	0x3e6cb5da	0.23116246
30	0x3ddc2e8d	0.10751066
31	0x3e97ce2d	0.29649487
32	0xbcadb6ff	-0.021205423
33	0x3e24644f	0.1605389
34	0x3da8ef52	0.08248772
35	0x3e8223d2	0.25417954
36	0x398f26be	0.0002730395
37	0x3e1d83c5	0.15382297
38	0x3d83577f	0.06413173
39	0x3e93fe47	0.28904936
40	0xbd38f660	-0.045156837
41	0x3e9e0f81	0.30871204
42	0x3d89968d	0.067181684
43	0x3e16d734	0.14730531
44	0x3e694220	0.22779131
45	0x3ded6c64	0.115929395
46	0x3dabeb4f	0.08394491
47	0x3e4c10ed	0.19928332
48	0x3dc33723	0.09532001
49	0x3d985fc6	0.07440142
50	0x3cd5cbaa	0.026098091
51	0x3e3b13be	0.1826925
52	0x3d9262b3	0.07147732
53	0x3e55179b	0.20809786
54	0x3e09c52d	0.13454123
55	0x3e480313	0.19532423
56	0x3d9d9a37	0.0769543
57	0x3cac8941	0.021061542
58	0x3e80d240	0.25160408
59	0x3ddadfda	0.106872275
60	0x3e7be619	0.24599494
61	0x3c8cb171	0.017174454
62	0x3de7b38a	0.11313541
63	0xbc34209a	-0.010994101
64	0x3c484847	0.0122242635
65	0x3e5adc22	0.21373037
66	0xbe10f5ec	-0.14156312
67	0x3cf9a4de	0.030474123
68	0x3e088e0f	0.13335441
69	0x3d008d61	0.03138483
70	0xbdaf3bae	-0.08556305
71	0x3dfbf8b1	0.123032935
72	0xbd1cf0b9	-0.03831551
73	0x3e137633	0.14400558
74	0x3d1cbec3	0.038267862
75	0xbe2c4950	-0.16824841
76	0x3d9a9a42	0.075489536
77	0xbe042506	-0.12904748
78	0xbcfb7445	-0.03069509
79	0xbd8e1952	-0.06938423
80	0xbd948c03	-0.072532676
81	0x3d095493	0.033527922
82	0x3e18e99f	0.1493287
83	0x3e8b758c	0.2723812
84	0x3dbe56a1	0.09293867
85	0x3d9e945e	0.077431425
86	0x3e4e9725	0.20174845
87	0xbde8e016	-0.11370866
88	0x3e4bc5c7	0.19899665
89	0xbdf4607f	-0.11932468
90	0xbdb7f08e	-0.08981429
91	0xbd021ca2	-0.031765588
92	0x3e28e631	0.16494061
93	0x3e5420b7	0.20715605
94	0x3e047ed2	0.12939003
95	0xbcdf300c	-0.02724459
96	0x3b8ab78a	0.0042333053
97	0x3e9b992e	0.30390304
98	0x3e193328	0.14960921
99	0x3d2f9f2c	0.042876408
100	0x3e9b66ae	0.30351776
101	0x3cf9d943	0.030499106
102	0x3c78c2ce	0.015183164
103	0x3e791045	0.24322613
104	0x3e8781c3	0.26466188
105	0x3d9c83ce	0.07642327
106	0x3d986d61	0.07442737
107	0x3e895b0c	0.26827276
108	0x3e3ec077	0.18628107
109	0x3d8e2f4a	0.069426134
110	0x3e9152e4	0.28383553
111	0x3e5f3a9f	0.21799706
112	0xbde2ea73	-0.11079874
113	0x3dbb09eb	0.09132751
114	0x3e68eac5	0.22745807
115	0x3e53cf2d	0.206845
116	0xbcc1608e	-0.023605611
117	0x3e3c0d30	0.18364406
118	0x3da91b32	0.0825714
119	0xbcd1ea97	-0.025624556
120	0x3dbfdcc8	0.093682826
121	0x3e6646bc	0.2248792
122	0x3e17ea40	0.14835453
123	0x3eb2d877	0.34930775
124	0xbd5d668a	-0.054052867
125	0x3e385998	0.18002927
126	0x3e609005	0.21929939
127	0x3e7f53c7	0.24934302

encoder.bias_hh_l0 f4 [128]
0	0x3e37c16c	0.17944878
1	0x3e5c4348	0.21510041
2	0x3de44cdc	0.11147472
3	0xbc06ec8c	-0.008235108
4	0x3e3c04aa	0.18361154
5	0x3e276e6e	0.1635072
6	0x3e0be07d	0.13659854
7	0x3d047e27	0.03234687
8	0x3d530d4c	0.051526353
9	0x3e96ad2d	0.29428998
10	0xbd146837	-0.0362322
11	0x3e0d576e	0.13802883
12	0x3a09858d	0.0005246036
13	0x3e1f008d	0.15527554
14	0x3e5a7eb7	0.213374
15	0x3e036b9b	0.12834017
16	0x3e08969e	0.13338706
17	0x3cd2bc78	0.025724635
18	0x3d46afc5	0.04850747
19	0xbd4a09c9	-0.049325738
20	0x3b466ead	0.003027837
21	0x3e4a2312	0.19739941
22	0xbc117347	-0.008877582
23	0x3d5d70a5	0.054062504
24	0x3e0b021d	0.13575025
25	0xbdcff311	-0.10153783
26	0x3c9d5ffd	0.01921081
27	0xbc4d25c6	-0.012521213
28	0x3d86e7a4	0.06587151
29	0x3e5a9c06	0.2134858
30	0x3d9b4f7d	0.075835206
31	0x3e860703	0.26177225
32	0x3e900f7d	0.28136817
33	0x3db0fb35	0.08641664
34	0x3d00eae1	0.031473998
35	0x3e470d6a	0.19438711
36	0x3ded7348	0.11594254
37	0x3daf3963	0.085558675
38	0x3dfa0654	0.12208238
39	0x3e93569e	0.2877702
40	0x3cff4f6a	0.031165797
41	0x3e330d72	0.17485598
42	0x3e88b48b	0.26700243
43	0xbe0257c8	-0.12728798
44	0x3c52c8c0	0.012865245
45	0x3e350a39	0.17679681
46	0x3e32cca0	0.1746087
47	0x3ca4ba44	0.02010835
48	0x3e0fb5b7	0.14034162
49	0x3e562673	0.20913105
50	0xbcfbd2b1	-0.030740114
51	0x3dd87e4b	0.105709635
52	0x3e2f79bf	0.17136286
53	0x3e162ffd	0.14666744
54	0x3d03b5d2	0.03215582
55	0x3e3cf22a	0.18451753
56	0x3d3fc304	0.04681684
57	0xbc835af3	-0.016034579
58	0x3e59b50f	0.21260475
59	0x3df9c54d	0.12195835
60	0x3d9aa2f0	0.07550609
61	0x3b1d3bd4	0.002399196
62	0x3e2d0fce	0.1690056
63	0x3c699f9b	0.014259244
64	0xbd9d304f	-0.0767523
65	0x3e016b08	0.12638485
66	0xbe47dbf1	-0.19517495
67	0xbcbc8ec0	-0.023017287
68	0x3e80c95c	0.25153625
69	0x3cf1aaf2	0.029500458
70	0xbe7654c6	-0.24055776
71	0x3e0f8ddb	0.14018957
72	0x3b17c0f5	0.0023155783
73	0xba8f06b4	-0.0010912032
74	0x3dea1479	0.11429686
75	0xbe42d60a	-0.19026962
76	0x3e54d240	0.20783329
77	0xbdbc10e2	-0.09182908
78	0x3e5e578f	0.21713088
79	0x3d0064b5	0.03134604
80	0x3dcd6e06	0.10030751
81	0x3c92363f	0.017848132
82	0x3c271bfa	0.010199541
83	0x3e40e22d	0.18836279
84	0x3e33dc29	0.17564453
85	0xbe1b55b2	-0.15169409
86	0xbdc42146	-0.09576659
87	0xbdd1913d	-0.1023278
88	0x3e1f40e4	0.15552098
89	0xbdebaf93	-0.115080975
90	0xbbfc1504	-0.007692935
91	0xbdef945f	-0.116982214
92	0xbd575e81	-0.05258036
93	0x3e358c41	0.17729284
94	0x3e6bdcd4	0.23033458
95	0xbce49e45	-0.0279075
96	0x3d191108	0.037369758
97	0x3e05952c	0.13045186
98	0x3e553320	0.20820284
99	0xbcb0aba2	-0.021566216
100	0x3e8aa186	0.27076358
101	0x3e565049	0.20929064
102	0x3d145861	0.036217097
103	0x3d69dcd1	0.057095353
104	0x3d1b9100	0.03798008
105	0xbd8e8db0	-0.069606185
106	0xbd36b353	-0.04460461
107	0x3e1fc2fa	0.15601721
108	0x3e96cb68	0.29452062
109	0x3e24ed35	0.16106112
110	0x3e0d5160	0.13800573
111	0x3e439c86	0.19102678
112	0x3c61bc6f	0.013777836
113	0x3d6e8876	0.058235608
114	0x3e3f310d	0.18671055
115	0x3e1a4585	0.15065582
116	0xbde15070	-0.1100167
117	0x3df8c307	0.121465735
118	0x3e3e3169	0.18573536
119	0x3e67e78b	0.2264692
120	0x3e19c766	0.1501747
121	0x3e8ee7ba	0.27911168
122	0x3d9fff68	0.07812387
123	0x3e000cfa	0.1250495
124	0x3de0dacc	0.10979232
125	0x3e857efc	0.26073444
126	0x3e765019	0.24053992
127	0x3d407fa4	0.046996728

bottleneck.weight f4 [16, 32]
0	0x3dd0af5c	0.10189697
1	0xbe780378	-0.24220073
2	0x3d42a287	0.04751828
3	0xbe330d5b	-0.17485563
4	0xbc5f2cfe	-0.013621567
5	0x3e402738	0.18764961
6	0x3d0802cb	0.03320579
7	0x3e2ce40a	0.16883865
8	0xbe3837db	-0.17990057
9	0x3c8238b8	0.015896186
10	0x3e80c1bb	0.25147805
11	0xbe782235	-0.24231799
12	0xbde0aa87	-0.109700255
13	0xbbf1cecc	-0.0073793884
14	0xbe0394bd	-0.12849708
15	0x3e1908f8	0.14944828
16	0x3d516919	0.05112562
17	0xbb76122c	-0.0037547452
18	0xbe0e2761	-0.1388221
19	0xbe5e3eff	-0.21703719
20	0x3dfc0424	0.12305477
21	0xbd87a725	-0.06623677
22	0x3e72633a	0.23670664
23	0x3e3423f5	0.17591842
24	0x3cb9981a	0.022655535
25	0xbca75f01	-0.020431044
26	0x3e0eca51	0.13944365
27	0x3e683951	0.22678114
28	0x3dc7ce3b	0.09756132
29	0x3cb2222a	0.021744806
30	0xbe3ee8cf	-0.18643497
31	0xbdc19e7f	-0.09454059
32	0x3e76f40d	0.24116535
33	0x3ea7db75	0.3278462
34	0xbe46d811	-0.1941836
35	0x3b472d17	0.0030391866
36	0xbe846874	-0.2586094
37	0xbd817115	-0.06320397
38	0xbe26b5c5	-0.16280277
39	0x3dc13f07	0.0943585
40	0x3da49d00	0.08037758
41	0x3c03558a	0.008016
42	0xbebfd548	-0.37467408
43	0x3e624dde	0.22100016
44	0x3e0d9579	0.1382655
45	0x3e60fdba	0.21971789
46	0x3e99576b	0.29949507
47	0x3e4a3956	0.19748434
48	0xbd92856a	-0.07154353
49	0xbea02b04	-0.31282818
50	0xbc146008	-0.009056099
51	0xbdc8392e	-0.09776531
52	0xbe80cb80	-0.25155258
53	0xbd8237fc	-0.063583344
54	0x3e196bdc	0.14982551
55	0xbcc54a7b	-0.024083367
56	0xbe523fb0	-0.20532107
57	0x3ce986a5	0.028506586
58	0xbe51a7cd	-0.20474167
59	0xbd848e20	-0.06472421
60	0x3d55fe7e	0.052244656
61	0x3e64b46e	0.22334453
62	0x3d3c5f4a	0.045989312
63	0x3eaab922	0.3334437
64	0xbe808141	-0.25098613
65	0x3de9e3bc	0.1142039
66	0xbe514dec	-0.20439881
67	0xbdf17ebc	-0.11791751
68	0xbe62d7b0	-0.22152591
69	0xbdbfda37	-0.09367793
70	0xbe80d86f	-0.25165126
71	0x3e47577a	0.19466963
72	0x3c54a4b0	0.012978718
73	0x3cfcf9ea	0.030880887
74	0xbe3203ce	-0.17384264
75	0x3dfe8e15	0.12429444
76	0x3e9e4c5f	0.30917642
77	0xbc1e4e41	-0.009662212
78	0x3e3c824e	0.18409082
79	0xbe670961	-0.22562172
80	0x3e6ac25e	0.22925708
81	0xbe1fe480	-0.1561451
82	0xbe368fc4	-0.1782828
83	0x3e6e88a2	0.23294309
84	0xbc3bb6bc	-0.0114571415
85	0x3d2be717	0.04196843
86	0x3dda72a9	0.10666401
87	0xbdba3803	-0.09092715
88	0xbe972234	-0.29518282
89	0x3ca5e011	0.020248445
90	0xbead0082	-0.3378945
91	0xbe19c570	-0.15016723
92	0xbe905b5e	-0.28194708
93	0x3e05427a	0.1301364
94	0x3ec9dafd	0.39424887
95	0x3ed2749e	0.41104597
96	0x3e08b689	0.13350882
97	0x3eb608a6	0.35553473
98	0xbe83de29	-0.25755432
99	0xbca62250	-0.020280033
100	0xbdc2e60e	-0.09516536
101	0xbe69fd76	-0.22850594
102	0xbe736f72	-0.23772982
103	0x3da63e84	0.08117393
104	0x3e70ff52	0.23534897
105	0xbe26c646	-0.16286573
106	0xbd684c6e	-0.056713514
107	0x3c9f8f61	0.019477548
108	0x3e48bc09	0.1960298
109	0xbe9298de	-0.28632253
110	0x3d041321	0.032244805
111	0xba733688	-0.000927784
112	0x3e20db50	0.15708661
113	0xbe63a607	-0.22231303
114	0xbe95c042	-0.29248244
115	0x3d026721	0.031836633
116	0x3d1b4d25	0.037915368
117	0x3e360b09	0.17777647
118	0x3e017d87	0.12645541
119	0xbc2a2bce	-0.01038642
120	0xbe221eeb	-0.15832107
121	0x3e21ff06	0.1581994
122	0xbc0d9ebe	-0.008643804
123	0xbdca00ee	-0.098634586
124	0xbe32d1c9	-0.17462839
125	0x3eadd82d	0.33953992
126	0x3e8f2551	0.27958158
127	0x3e7834a4	0.24238831
128	0x3e673f8a	0.22582832
129	0x3e78d6f1	0.24300744
130	0x3d903826	0.070419595
131	0x3e888d3f	0.26670262
132	0xbe3f4e06	-0.18682107
133	0xbe71ce59	-0.23613872
134	0x3cdfb500	0.027307987
135	0x3e8905cf	0.26762244
136	0x3de633d6	0.11240356
137	0x3d4aeff5	0.049545247
138	0xbeba0612	-0.36332756
139	0x3e238519	0.15968741
140	0xbd958c71	-0.07302178
141	0x3da21bdc	0.0791547
142	0x3dce3ac8	0.100698054
143	0xbdd38a2f	-0.10329091
144	0x3d179010	0.037002623
145	0xbea012d7	-0.31264374
146	0xbe891c7e	-0.2677955
147	0xbd1647c5	-0.03668954
148	0xbe782641	-0.24233343
149	0xbd0d28c9	-0.034462724
150	0xbe3b36ad	-0.18282576
151	0xbe853730	-0.26018667
152	0xbdbd9c8f	-0.09258377
153	0x3e9d5b3c	0.3073367
154	0xbd90812c	-0.070558876
155	0x3dc62485	0.09674934
156	0x3e295baa	0.16538873
157	0x3e8a0ab4	0.2696129
158	0x3e676ba6	0.22599658
159	0x3e88e718	0.2673881
160	0xbe81f19f	-0.25379655
161	0x3e72cbd9	0.23710574
162	0xbe00a102	-0.1256142
163	0x3e48fed8	0.19628465
164	0xbd8d5107	-0.0690022
165	0x3db918e5	0.090379514
166	0xbdec15d9	-0.115276046
167	0x3e2a8ec5	0.16656025
168	0xbdb25e7d	-0.087094285
169	0xbe502edf	-0.2033038
170	0xbde40d69	-0.1113537
171	0x3ddef7b2	0.10887088
172	0x3e6d07e3	0.2314754
173	0xbe7115ec	-0.23543519
174	0x3de5868f	0.11207306
175	0xbe8f8f7e	-0.28039163
176	0x3d88e8ab	0.06685003
177	0x3dad6975	0.0846738
178	0xbe5a8db1	-0.21343113
179	0x3e84b283	0.25917444
180	0x3c2d1998	0.010565184
181	0x3d1fe8e8	0.039040476
182	0x3db291a3	0.08719184
183	0xbbdba0cf	-0.0067025195
184	0x3c317ae1	0.010832519
185	0x3d38d902	0.04512883
186	0xbdfb4c0b	-0.122703634
187	0xbe63b912	-0.22238567
188	0xbe4ee27e	-0.20203587
189	0x3e3e7367	0.1859871
190	0x3e87fcc8	0.26560044
191	0x3e9875eb	0.29777464
192	0xbe3088c3	-0.1723967
193	0xbdae333c	-0.08505866
194	0xbe0750fa	-0.13214484
195	0x3e14d682	0.14534953
196	0xbe301190	-0.171942
197	0x3d70dfdc	0.05880724
198	0xbd5c4bea	-0.053783335
199	0x3d312fff	0.043258663
200	0x3e651275	0.22370322
201	0xbe2470fa	-0.16058722
202	0xbeb8ea71	-0.36116365
203	0xbd95e022	-0.073181406
204	0x3bf4af6f	0.0074672024
205	0xbe1870c2	-0.14886764
206	0x3e72b128	0.23700392
207	0x3d894917	0.06703394
208	0x3e4a4d1c	0.19755977
209	0x3e12cb49	0.1433536
210	0xbd81b4aa	-0.06333287
211	0x3e2e1555	0.17000325
212	0xbdbff59e	-0.0937302
213	0x3dbac83c	0.09120223
214	0xbe8f0b1e	-0.2793817
215	0xbd661d2c	-0.056180164
216	0xbd9008c7	-0.07032924
217	0xbd6f9cae	-0.05849903
218	0xbe3851d0	-0.17999959
219	0x3b247f0c	0.002510014
220	0xbe59bf38	-0.2126435
221	0xbaa53a79	-0.0012605927
222	0x3e827bfe	0.25485224
223	0x3ca12ff9	0.019676195
224	0x3df71b41	0.12065745
225	0xbdd534ed	-0.104104854
226	0xbe0cdb8e	-0.13755628
227	0x3e12e179	0.14343823
228	0xbde891ea	-0.11355956
229	0xbd380b1c	-0.04493247
230	0xbe1e682e	-0.15469429
231	0x3d91716d	0.071017124
232	0x3e817687	0.25285742
233	0xbe6d162f	-0.23152994
234	0xbe8543e9	-0.26028374
235	0x3d0937b3	0.033500385
236	0xbd681ed6	-0.056670032
237	0x3d076fff	0.033065792
238	0x3dcc0795	0.09962384
239	0xbe8b6202	-0.27223212
240	0x3e08a18a	0.13342872
241	0xbdba03e3	-0.090827726
242	0xbd6d7477	-0.057972398
243	0x3e072606	0.13198099
244	0xbea8ce5c	-0.3296994
245	0x3e80ff71	0.25194886
246	0xbd903154	-0.070406586
247	0x3bbd2406	0.0057721166
248	0xbd9cda6b	-0.076588474
249	0x3e161c0e	0.1465914
250	0x3c63f38b	0.013913046
251	0x3dce81df	0.10083365
252	0x3d97d454	0.07413545
253	0x3e1fd369	0.1560799
254	0x3d41e7a6	0.047340058
255	0x3e247361	0.16059639

bottleneck.bias f4 [16]
0	0x3d60f46c	0.0549206
1	0x3e14696a	0.14493337
2	0x3dd24256	0.10266559
3	0x3e776d03	0.24162678
4	0x3dc48b99	0.09596939
5	0x3e8c7ed4	0.27440512
6	0xbd3b497e	-0.045724384
7	0x3de3de29	0.11126358
8	0xbd0c4b1f	-0.03425133
9	0x3da307a4	0.07960442
10	0xbc019e6a	-0.007911304
11	0x3d3f8e66	0.04676666
12	0x3d6e2ce2	0.058148272
13	0x3e2c228a	0.1681005
14	0x3b749e89	0.003732594
15	0xbcc3cb75	-0.023900727

decoder_input.weight f4 [32, 16]
0	0x3e88376d	0.26604787
1	0xbe8cef4c	-0.2752632
2	0xbeb66216	-0.3562171
3	0x3de1f443	0.11032917
4	0xbdc4d7aa	-0.09611447
5	0xbd0b4660	-0.03400266
6	0xbca4b841	-0.02010739
7	0xbdb2cc6f	-0.08730399
8	0x3c35f427	0.011105574
9	0xbe99aab1	-0.3001304
10	0x3e81dc12	0.25363213
11	0x3e46104e	0.19342157
12	0x3ebba7cd	0.3665146
13	0xbc349347	-0.011021442
14	0x3dac5102	0.084138885
15	0x3e18f2d4	0.14936382
16	0x3e814879	0.25250605
17	0x3b00f3ee	0.0019676643
18	0xbdae3020	-0.08505273
19	0x3d414a3d	0.04718994
20	0x3debb000	0.11508179
21	0x3bbd8bae	0.0057844734
22	0xbe2f7b93	-0.17136984
23	0x3e1bd95d	0.15219636
24	0x3e14bb8c	0.14524668
25	0xbe607cd5	-0.2192262
26	0x3ea0984a	0.31366187
27	0xbc52b6e7	-0.01286099
28	0x3d99b7d0	0.075057626
29	0x3ea27335	0.3172852
30	0xbdf9abf3	-0.12191
31	0xbe9a9a30	-0.3019576
32	0x3df2095a	0.1181819
33	0xbd82f6e8	-0.0639475
34	0x3c7e38ec	0.015516501
35	0x3e991c1f	0.29904267
36	0x3e8dccf8	0.2769544
37	0xbd26ccdf	-0.040722724
38	0xbcb3caa7	-0.021947218
39	0x3e7569a4	0.2396608
40	0x3e182c46	0.14860639
41	0x3e13d289	0.14435782
42	0xbd528a4f	-0.051401433
43	0xbda88785	-0.08228973
44	0xbe5026b4	-0.20327264
45	0xbd3a099c	-0.04541932
46	0xbcdd673e	-0.027026769
47	0x3e2a340f	0.16621421
48	0x3e9fc971	0.31208375
49	0xbe0c2a28	-0.13687956
50	0x3dbd3baa	0.09239896
51	0xbe2965fd	-0.16542812
52	0xbd3bf427	-0.04588714
53	0xbeaead89	-0.34116772
54	0xbdb25c3b	-0.08708998
55	0xbe875c1a	-0.26437455
56	0xbe53734b	-0.2064945
57	0x3e019dea	0.12657896
58	0xbd6991b3	-0.057023715
59	0xbbe1b1f6	-0.0068876697
60	0x3d35081b	0.044197183
61	0xbdf6b54b	-0.12046298
62	0xbcd6d2fb	-0.02622365
63	0xbe6c7b31	-0.23093869
64	0x3e049c63	0.12950282
65	0xbe137a6f	-0.14402173
66	0x3d8587ed	0.065200664
67	0xbe81ba32	-0.25337368
68	0xbe8e51c7	-0.27796766
69	0xbe110d60	-0.14165258
70	0xbe64d083	-0.22345166
71	0xbe15a961	-0.14615394
72	0x3c75778d	0.014982116
73	0xbe6829d0	-0.226722
74	0x3da61c4d	0.08110867
75	0xbe653f7b	-0.22387497
76	0x3e8de7ab	0.2771581
77	0xbdad0871	-0.08448876
78	0x3df907db	0.121597014
79	0xbe9297db	-0.28631482
80	0xbe4af854	-0.19821292
81	0x3ec7eb2e	0.39046615
82	0x3e3040e1	0.1721225
83	0x3e0ba551	0.13637282
84	0x3ec1f323	0.3788081
85	0xbdf39b52	-0.118948594
86	0x3e24cfde	0.1609492
87	0xbcf40343	-0.029786712
88	0x3e2045ba	0.15651599
89	0xbda027e7	-0.07820111
90	0xbeb32707	-0.34990713
91	0x3dfa6309	0.12225921
92	0xbeba2c1f	-0.36361787
93	0x3e18de38	0.1492852
94	0x3e875ba2	0.26437098
95	0xbe4c68f7	-0.19961916
96	0x3d933ff0	0.071899295
97	0xbe37d064	-0.17950588
98	0xbea209bb	-0.3164805
99	0xbeae8c4e	-0.3409142
100	0xbe871123	-0.26380262
101	0xbeaae8e7	-0.33380815
102	0xbe212659	-0.15737285
103	0x3da6f8ed	0.081529476
104	0xbe9ac547	-0.30228636
105	0xbe3e4887	-0.18582354
106	0x3d6100cc	0.0549324
107	0x3e2e3c87	0.17015277
108	0xbd82ec10	-0.063926816
109	0xbe5f5ec4	-0.21813494
110	0xbe229d12	-0.1588023
111	0xbe3b9fd8	-0.18322694
112	0x3dde2fd6	0.10848968
113	0xbd5a9cba	-0.053372122
114	0x3e9f9394	0.3116728
115	0x3e911f48	0.28344178
116	0x3e38e766	0.18057021
117	0x3e264e21	0.16240741
118	0xbd8bfa39	-0.068348356
119	0x3e0c19f3	0.13681774
120	0xbe0d3714	-0.13790542
121	0x3de16ffb	0.11007687
122	0x3d3fab56	0.046794258
123	0x3e2d6759	0.16933955
124	0x3e8ff5f3	0.28117332
125	0x3d56154f	0.052266415
126	0xbe04fd81	-0.12987329
127	0x3e890ad7	0.26766083
128	0xbdab0d3a	-0.08352132
129	0x3e6211c2	0.22077087
130	0x3e06eaad	0.13175459
131	0x3e681fe5	0.22668417
132	0xbcf70b25	-0.030156681
133	0x3e353c3d	0.1769876
134	0x3c089dc8	0.008338399
135	0xbe06f087	-0.13177691
136	0xbd851469	-0.064980336
137	0x3e80af26	0.25133628
138	0x3cc44ad2	0.023961458
139	0x3e30ebe2	0.17277482
140	0xbe4fca82	-0.20292094
141	0xbdde2507	-0.10846906
142	0x3db80fad	0.08987365
143	0x3ba8b55a	0.005148572
144	0x3e85b616	0.26115483
145	0xbebe287c	-0.37140262
146	0xbe129f49	-0.14318575
147	0xbe96cf79	-0.29455164
148	0x3e122520	0.14271975
149	0xbead8e1f	-0.33897492
150	0x3ced941c	0.029001288
151	0x3e242513	0.16029768
152	0xbe907214	-0.28212035
153	0x3e223053	0.15838747
154	0x3e43bfe7	0.19116174
155	0xbde749cb	-0.11293372
156	0xbdda28f5	-0.10652343
157	0xbe86c1e6	-0.26319808
158	0x3d220272	0.039553113
159	0x3de016c7	0.109418444
160	0xbe2127f3	-0.15737896
161	0x3d51fd8d	0.051267195
162	0xbde0ae91	-0.10970796
163	0x3c694461	0.014237494
164	0xbe359b6a	-0.17735067
165	0xbd8e6c92	-0.06954302
166	0xbe4172eb	-0.18891494
167	0xbdefb680	-0.11704731
168	0xbd83d9cc	-0.06438026
169	0xbe9e666b	-0.30937514
170	0x3e733b9d	0.2375321
171	0xbeaa7d71	-0.3329883
172	0xbe399f21	-0.18127109
173	0xbe3b84a8	-0.18312323
174	0x3d51e3ec	0.051242754
175	0xbe9f5126	-0.311166
176	0xbae98dd5	-0.0017818758
177	0xbdeb1d4a	-0.11480196
178	0xbe059a5d	-0.13047166
179	0xbdde1195	-0.10843197
180	0x3e54e707	0.20791255
181	0xbd9e5217	-0.07730501
182	0x3e9d63fb	0.30740342
183	0x3e85233a	0.26003438
184	0xbdd5ad2a	-0.10433419
185	0x3e95bc83	0.29245386
186	0xbe2f7cd5	-0.17137463
187	0x3e9c6e6f	0.30553004
188	0x3d526b2d	0.051371742
189	0xbe6850ec	-0.22687119
190	0x3e9c4366	0.3052017
191	0xbd7d49ca	-0.06183795
192	0xbdb89c48	-0.09014183
193	0x3e9ea536	0.3098542
194	0x3dd3dc64	0.103447706
195	0x3d40bc59	0.047054622
196	0x3dd45107	0.10367017
197	0xbdcd2b9a	-0.10018082
198	0xbe5ac58b	-0.21364419
199	0x3e0a9b6f	0.13535856
200	0x3e3368bc	0.17520422
201	0xbd6a7234	-0.05723782
202	0x3e59e890	0.21280122
203	0x3c2a39b0	0.01038973
204	0x3e37b8d1	0.17941596
205	0x3ec9f349	0.39443424
206	0x3ca07ab5	0.019589761
207	0xbe6cbc61	-0.23118736
208	0xbe5d8748	-0.21633637
209	0xbc8ba5f2	-0.017046902
210	0x3db3c610	0.08778012
211	0xbe62b770	-0.22140288
212	0xbe4f3981	-0.2023678
213	0x3e3adfc8	0.18249428
214	0x3d49783e	0.049186938
215	0x3e5824c7	0.2110778
216	0xbea7cf56	-0.32775372
217	0x3e3d3f20	0.18481112
218	0xbe40cdd3	-0.18828516
219	0x3ba6bbeb	0.0050883195
220	0xbeaebe28	-0.34129453
221	0xbe504d0d	-0.20341893
222	0xbc4475c1	-0.011990965
223	0x3e031af5	0.12803252
224	0x3e0b1625	0.13582666
225	0xbe11030a	-0.14161316
226	0x3c9257ba	0.017864097
227	0xbe378309	-0.1792108
228	0x3de19b83	0.1101599
229	0xbd8ab003	-0.06771853
230	0xbe57346e	-0.21016094
231	0xbe2df357	-0.16987358
232	0xbbe28685	-0.0069130086
233	0xbd19b190	-0.037522852
234	0x3e391007	0.1807252
235	0xbe79ec57	-0.24406563
236	0x3ea7af2d	0.32750836
237	0x3e0bdb00	0.1365776
238	0xbe3501cb	-0.17676465
239	0xbdc44658	-0.095837295
240	0x3dff5a72	0.12468423
241	0xbe073bf8	-0.1320647
242	0x3e599c76	0.21251091
243	0x3d96eaeb	0.07369026
244	0xbdcfdbf0	-0.101493716
245	0x3e2b5c06	0.16734323
246	0x3c95c990	0.018284589
247	0x3ea36c1d	0.3191842
248	0xbdbfc780	-0.093642235
249	0xbdecfeee	-0.115720615
250	0xbe5d0951	-0.21585585
251	0x3e618a2a	0.22025362
252	0xbe9e313a	-0.30896932
253	0xbd14bb67	-0.036311533
254	0x3dba66f0	0.09101665
255	0x3e78fda0	0.243155

decoder_input.bias f4 [32]
0	0xbd4db655	-0.050222714
1	0x3d1ca52e	0.038243465
2	0x3e4b3e7f	0.19848059
3	0xbe4cea33	-0.20011215
4	0xbc9344d1	-0.01797715
5	0x3e8a773d	0.27044097
6	0xbe50928a	-0.203684
7	0x3d4e4e6f	0.05036777
8	0x3e1afbc8	0.1513511
9	0xbe668b06	-0.2251397
10	0xbe147973	-0.14499454
11	0x3e5a7d4e	0.21336862
12	0xbe675525	-0.22591074
13	0xbdd0e9f2	-0.102008715
14	0xb9f6786d	-0.000470105
15	0x3e460a84	0.19339949
16	0x3ea06075	0.3132359
17	0xbe023564	-0.1271568
18	0xbe6b3915	-0.22970994
19	0x3e817509	0.25284603
20	0x3e1b01d9	0.15137424
21	0x3e3c6885	0.18399246
22	0xbe7bd2ac	-0.24592084
23	0xbe9c66ec	-0.30547273
24	0xbdc52a53	-0.09627213
25	0xbe770e8f	-0.24126647
26	0xbe96d5a2	-0.29459864
27	0xbe1a9cec	-0.15098923
28	0xbd9a62df	-0.075383894
29	0xbd1f5052	-0.03889496
30	0x3e10ce52	0.14141205
31	0x3e4a64bc	0.1976499

decoder.weight_ih_l0 f4 [128, 32]
0	0xbe677e98	-0.22606885
1	0x3db236c3	0.08701851
2	0x3e4469ff	0.1918106
3	0xbe44043c	-0.1914224
4	0xbdc1131e	-0.094274744
5	0x3e3e1821	0.18563892
6	0xbe85afb9	-0.26110628
7	0x3e83c025	0.25732532
8	0xbafa6d61	-0.0019106084
9	0xbe9373a9	-0.2879918
10	0x3c2c066f	0.010499581
11	0xbe09ec01	-0.13468935
12	0x3e8bd6eb	0.27312407
13	0xbcf99a71	-0.030469151
14	0xbda525bd	-0.08063839
15	0x3e143ab0	0.14475513
16	0x3de45ccd	0.11150513
17	0xbda10612	-0.07862486
18	0xbbeeda27	-0.0072891894
19	0x3e1038fd	0.1408424
20	0x3d958959	0.073015876
21	0x3dd0c40b	0.10193642
22	0xbe063e5b	-0.13109724
23	0xbc0c42d9	-0.00856086
24	0xbd6c5dcb	-0.057706635
25	0x3cda850f	0.026674775
26	0xbe82b701	-0.25530246
27	0xbcb507df	-0.02209848
28	0x3d2e9eaf	0.0426318
29	0xbd553364	-0.052050963
30	0x3c9e3e21	0.019316735
31	0x3e1b63ac	0.1517474
32	0xbe4eb4ef	-0.20186208
33	0x3db68d1f	0.089136355
34	0x3cd355a1	0.025797667
35	0xbe30f9a6	-0.17282733
36	0xbce72a61	-0.02821845
37	0x3e139551	0.14412428
38	0xbe88f023	-0.2674571
39	0xbd5fb3c4	-0.054614797
40	0x3e3fd2e3	0.1873279
41	0xbd452835	-0.048134048
42	0xbd3c4631	-0.045965377
43	0xbe1000bc	-0.1406278
44	0x3e9e2c2e	0.3089308
45	0xbe387f65	-0.18017347
46	0xbe275d06	-0.1634408
47	0x3de6b50d	0.112650014
48	0x3e4566cd	0.19277497
49	0x3e0b08fb	0.13577645
50	0xbe371eb0	-0.178828
51	0x3d1ada3d	0.037805784
52	0xbdbc5be2	-0.09197213
53	0x3e054ae1	0.13016845
54	0x3d20a53d	0.039220084
55	0xbdec5602	-0.11539842
56	0xbe6b08e0	-0.22952604
57	0x3d8482a7	0.064702325
58	0xbdb35301	-0.08756066
59	0x3c4bfeea	0.012450913
60	0x3d987f9b	0.07446214
61	0xbe625e6d	-0.22106333
62	0x3e397815	0.18112214
63	0x3d2d82ef	0.042361196
64	0xbe9ab728	-0.30217862
65	0xbdc0f809	-0.09422309
66	0x3d7aa6d6	0.061194263
67	0xbdcc574f	-0.0997759
68	0xbdcfad76	-0.10140507
69	0x3e335313	0.17512159
70	0xbe429e6c	-0.19005746
71	0x3e56542b	0.20930545
72	0x3e241918	0.16025198
73	0xbea19205	-0.31556717
74	0x3dba8a9e	0.091084704
75	0x3dc2ef36	0.09518282
76	0x3e061e7d	0.13097568
77	0x3dddb99d	0.108264185
78	0xbc5a046a	-0.013306716
79	0x3d749c76	0.059719525
80	0xbc73e7e5	-0.014886831
81	0x3e1be2ba	0.15223208
82	0x3b8c96fe	0.0042904606
83	0x3dc6d0d6	0.09707801
84	0xbd820a34	-0.06349602
85	0xbc0fb302	-0.008770706
86	0xbe88f287	-0.26747534
87	0xbe800825	-0.25006214
88	0xbe846edf	-0.25865838
89	0xbdcf6f9c	-0.1012871
90	0xbe0ffecd	-0.14062043
91	0xbea0a9af	-0.31379458
92	0x3d0f5eaf	0.035002407
93	0xbd383df0	-0.044980943
94	0x3e94efc5	0.2908918
95	0x3e79b53b	0.2438554
96	0xbbc60d7d	-0.0060440884
97	0xbdb2ed30	-0.08736646
98	0x3d96cab5	0.07362882
99	0xbe351d0a	-0.17686859
100	0xbe6332a5	-0.22187288
101	0xbc134685	-0.008988981
102	0xbdbd2ec8	-0.092374384
103	0x3e177a53	0.14792757
104	0xbd38c095	-0.045105536
105	0xbddb543f	-0.10709428
106	0x3db4ad59	0.08822126
107	0xbe0d4196	-0.1379455
108	0xbe5432b7	-0.20722471
109	0x3e845c62	0.25851732
110	0xbe5393ef	-0.20661901
111	0x3ea148f9	0.31500986
112	0xbc6223e3	-0.013802501
113	0x3d8e9df7	0.06963723
114	0xbda63b1c	-0.08116743
115	0x3d549357	0.051898327
116	0xbd35c351	-0.04437572
117	0x3df3f47c	0.11911866
118	0xbdaa5c82	-0.08318426
119	0xbd338a40	-0.043833017
120	0xbe5071d2	-0.20355919
121	0xbe39aa57	-0.18131386
122	0xbaef1c00	-0.0018242598
123	0xbe8ea5a2	-0.27860743
124	0x3d58513e	0.052811854
125	0xbd72b9d2	-0.059259243
126	0x3e744b04	0.23856741
127	0x3d528cd2	0.051403828
128	0x3d8d9ace	0.06914292
129	0xbe53c938	-0.20682228
130	0x3e83aabd	0.257162
131	0xbdaa9d5d	-0.08330796
132	0xbcf6ccec	-0.030127011
133	0x3dbc393b	0.09190603
134	0xbdcfade5	-0.101405896
135	0x3e831e58	0.25609088
136	0x3d42de90	0.047575533
137	0x3de11476	0.10990231
138	0xbea58365	-0.3232681
139	0x3ca8ef9d	0.020622069
140	0x3d9c34b6	0.07627241
141	0x3d3597a7	0.04433408
142	0x3d57bc58	0.052669853
143	0x3d3a5e42	0.045500048
144	0x3df61edf	0.12017607
145	0x3e65b71f	0.22433136
146	0xbe45108b	-0.19244592
147	0x3e656579	0.2240199
148	0xbbf2e2d3	-0.0074122935
149	0x3e7aaabc	0.24479192
150	0xbe97031a	-0.29494554
151	0xbbc88671	-0.0061195423
152	0x3d0d0415	0.03442772
153	0xbe82ffc1	-0.2558575
154	0xbd4ba9c6	-0.049722455
155	0xbd309022	-0.043106206
156	0x3e1052d1	0.14094092
157	0xbd224a34	-0.039621547
158	0xbc9186a7	-0.017764403
159	0x3e34bcd5	0.17650159
160	0x3e15a954	0.14615375
161	0xbd1383c9	-0.036014352
162	0x3e257a62	0.16159967
163	0x3d7e7870	0.062126577
164	0xbddbd4dc	-0.10733959
165	0xbd8d15b8	-0.06888908
166	0xbe3e9740	-0.18612385
167	0x3dfbb552	0.122904435
168	0x3d9bca54	0.076069504
169	0xbe0508bf	-0.12991618
170	0xbe62c815	-0.22146638
171	0x3e834196	0.25635976
172	0xbd2ba085	-0.04190113
173	0xbe8d33cf	-0.2757859
174	0xbdc96d65	-0.098353185
175	0xbd39bd29	-0.045346413
176	0x3db73560	0.08945727
177	0xbdca4e41	-0.09878207
178	0x3d906e5c	0.070522994
179	0x3ea60157	0.32422897
180	0x3e46066c	0.19338387
181	0xbd0be812	-0.034156866
182	0xbcceeea1	-0.025260272
183	0x3c409fb3	0.011756825
184	0x3c80723d	0.015679473
185	0xbd2476be	-0.040152304
186	0xbd4a987f	-0.049461838
187	0x3e3d22ea	0.1847035
188	0xbc6e35b0	-0.014539167
189	0xbe9c755c	-0.30558288
190	0xbde82b44	-0.11336377
191	0x3e492900	0.19644547
192	0xbde448ef	-0.111467235
193	0x3da879ae	0.082263336
194	0x3e5fabf9	0.21842946
195	0xbe8b986b	-0.27264723
196	0xbde4420a	-0.111454085
197	0x3e3324b5	0.17494471
198	0xbe3cb98d	-0.18430157
199	0x3e8078b1	0.2509208
200	0x3e0ca22c	0.13733739
201	0xbe1bc481	-0.15211679
202	0xbd540bfc	-0.05176924
203	0xbdd65e0e	-0.10467158
204	0x3e3ae0e3	0.1824985
205	0xbe527834	-0.20553666
206	0x3d9bb869	0.07603533
207	0xbc523f82	-0.012832524
208	0x3ca33640	0.01992333
209	0x3de25bfb	0.110527
210	0xbe9fb356	-0.3119151
211	0x3bed9114	0.0072499607
212	0x3bea240f	0.007145412
213	0x3db33b9b	0.08751603
214	0xbe6f5d79	-0.233755
215	0xbd5e1f86	-0.05422928
216	0xbdcb6215	-0.09930817
217	0x3d5e13ce	0.054218106
218	0xbe61d93b	-0.22055523
219	0xbe8dce76	-0.2769658
220	0x3da101a2	0.078616396
221	0xbd8e4341	-0.069464214
222	0x3d8fafc5	0.07015947
223	0x3e22dfb0	0.15905643
224	0xbea622aa	-0.32448322
225	0xbdd4f81b	-0.10398885
226	0x3db0f730	0.08640897
227	0xbcae30b2	-0.021263454
228	0xbea3013b	-0.31836876
229	0x3bb87bdb	0.005629999
230	0xbe7ea8f9	-0.24869145
231	0x3e827c79	0.2548559
232	0x3e08df00	0.13366318
233	0x3af4cc60	0.0018676631
234	0xbe6741cb	-0.22583692
235	0x3d6a730c	0.057238623
236	0xbb4b4ef8	-0.003102241
237	0xbd0a2197	-0.03372344
238	0xbe8c588c	-0.27411306
239	0x3dc13273	0.094334505
240	0x3e33a6ef	0.17544149
241	0xbbc150d9	-0.0058995304
242	0x3c336964	0.01095042
243	0x3da7da96	0.08195989
244	0x3d06cecc	0.03291206
245	0x3d63add0	0.055585682
246	0xbd915d16	-0.07097833
247	0xbe1b792e	-0.15182945
248	0xbe80afdc	-0.2513417
249	0xbe0fae1c	-0.14031261
250	0xbe366881	-0.17813303
251	0xbde47397	-0.111548595
252	0x3dde330b	0.108495794
253	0xbe58e2db	-0.21180288
254	0xbc28a65f	-0.010293572
255	0x3d30752e	0.0430805

decoder.weight_hh_l0 f4 [128, 32]
0	0x3db1bde0	0.08678794
1	0xbe1072cb	-0.1410629
2	0x3e0880a2	0.1333032
3	0x3e571e0d	0.21007557
4	0xbd62284f	-0.055214223
5	0xbdbaf3b8	-0.09128517
6	0xbdeb0cc4	-0.11477044
7	0x3e6b23f4	0.22962934
8	0xbcd68212	-0.02618507
9	0x3e2cb2e0	0.1686511
10	0xbcdc72d9	-0.026910232
11	0xbd5736b1	-0.052542392
12	0x3e3947c1	0.18093778
13	0xbe17720e	-0.14789602
14	0x3daa892b	0.08326944
15	0x3dbe6de6	0.09298305
16	0xbccaab73	-0.024739956
17	0x3d90af00	0.070646286
18	0xbd2c679d	-0.042091
19	0xbddae0dd	-0.106874205
20	0xbdd5401c	-0.104126185
21	0xbd846e46	-0.064663455
22	0x3e1cacd8	0.1530031
23	0xbd12134a	-0.035662927
24	0xbc23b51f	-0.009991913
25	0x3e12d4e8	0.1433903
26	0xbde87faa	-0.11352475
27	0xbe26f081	-0.16302682
28	0x3d04b10f	0.03239542
29	0x3dfc690e	0.12324725
30	0x3e167272	0.14692095
31	0xbdb570fc	-0.08859441
32	0xbdd77daa	-0.105220154
33	0x3d53e977	0.05173632
34	0x3c4c232b	0.012459557
35	0xbd77c5f7	-0.06049153
36	0xbddcc002	-0.1077881
37	0xbd8a7d0d	-0.06762133
38	0xbe1ad7ff	-0.15121458
39	0xbd16813d	-0.036744345
40	0xbde658c8	-0.112474024
41	0x3c1ec9bf	0.009691655
42	0xbdd41e2c	-0.10357317
43	0x3d11abc7	0.03556421
44	0x3dc18632	0.09449424
45	0xbe0d6f9b	-0.13812105
46	0x3dc47d23	0.095941804
47	0xbd35d533	-0.044392776
48	0x3d8189ab	0.06325086
49	0x3ddeaaec	0.108724445
50	0x3c434217	0.0119176125
51	0x3c1cc783	0.009569052
52	0xbe02ef0b	-0.127865
53	0x3c32531c	0.010884073
54	0x3e18110c	0.14850253
55	0x3d521c1c	0.05129634
56	0xbd9a97c8	-0.07548481
57	0x3df21b59	0.118216224
58	0x3da75b08	0.0817166
59	0xbe52f00a	-0.2059938
60	0x3d0200b3	0.031738948
61	0xbcb57bb1	-0.022153707
62	0x3d82aaa5	0.06380204
63	0x3b00d8c4	0.0019660452
64	0xbc297d5d	-0.01034483
65	0xbd782ec3	-0.06059147
66	0xbdb5f78c	-0.088851064
67	0x3d34873f	0.044074293
68	0x3c0e0f8a	0.008670697
69	0xbca391dc	-0.019967012
70	0x3cc07423	0.023492878
71	0x3e51a78b	0.20474069
72	0xbe578d38	-0.21049964
73	0x3e261289	0.16218008
74	0x3d222a08	0.039590865
75	0x3d2ab22b	0.04167382
76	0x3c6e1ccf	0.014533236
77	0xbe4a6f3c	-0.19768995
78	0x3e4b93fd	0.19880672
79	0x3d3aa307	0.04556563
80	0x3dce97c0	0.10087538
81	0xbc9fa56d	-0.01948806
82	0x3a947dec	0.0011329032
83	0xbdee6fde	-0.11642431
84	0x3c449a92	0.011999743
85	0xbe01e6b2	-0.1268566
86	0xbc39b59e	-0.011334805
87	0x3cdf5097	0.027260108
88	0xbe0f1b10	-0.13975167
89	0x3dc2bdb6	0.09508841
90	0x3dcc6915	0.0998098
91	0xbe3c759d	-0.18404241
92	0xbc602185	-0.013679867
93	0x3e9b1d2a	0.30295688
94	0x3d9a9448	0.07547814
95	0xbc9ae339	-0.018907176
96	0xbe9db555	-0.30802408
97	0x3e97d952	0.2965799
98	0x3eda1327	0.42592737
99	0x3e82dbcf	0.25558326
100	0x3f0b556e	0.5442723
101	0x3ed86b19	0.4226921
102	0x3e4072fc	0.18793863
103	0x3db297f3	0.08720388
104	0x3eac1bc4	0.33614933
105	0xbea20a96	-0.316487
106	0x3e6d0ba4	0.23148972
107	0xbf3338ac	-0.7000835
108	0xbe9892cf	-0.29799506
109	0xbe5f6989	-0.21817602
110	0x3f103b44	0.5634043
111	0xbe50a744	-0.20376307
112	0xbed23ee7	-0.41063616
113	0x3c5de5bb	0.013543542
114	0xbea03c30	-0.3129592
115	0xbe58147c	-0.21101564
116	0x3e20701c	0.15667766
117	0x3d65cc5b	0.05610309
118	0xbecb3d8c	-0.39695394
119	0xbec4bf14	-0.3842703
120	0xbe6f0427	-0.23341428
121	0xbe839f13	-0.25707301
122	0x3e215b7d	0.15757556
123	0x3cc82369	0.024430947
124	0xbe923e05	-0.28562942
125	0xbd32e0ce	-0.04367142
126	0xbec23462	-0.3793059
127	0xbd846b00	-0.06465721
128	0xbd26e4df	-0.040745612
129	0xbe1a2cdc	-0.15056175
130	0x3d8cd35b	0.0687625
131	0xbe1c08ff	-0.15237807
132	0x3c4cccfb	0.012500043
133	0xbe24e89d	-0.1610436
134	0x3e37a454	0.1793378
135	0x3e1b76d7	0.15182053
136	0xbdf4b969	-0.11949427
137	0x3d99bf82	0.0750723
138	0xbcf692f7	-0.030099375
139	0x3d8cb6ba	0.0687079
140	0xbe15a807	-0.14614879
141	0xbe0cdd96	-0.13756403
142	0x3bbb5fe2	0.005718217
143	0xbc624174	-0.013809551
144	0xbe133ebf	-0.14379404
145	0xbdfb6182	-0.122744575
146	0x3caf957e	0.021433588
147	0xbd1d82f3	-0.03845496
148	0xbcc6a89e	-0.024250325
149	0xbe5844a4	-0.21119934
150	0x3da11c79	0.07866759
151	0xbd9e9dc4	-0.07744935
152	0xbca8e828	-0.020618513
153	0x3e5fda54	0.2186063
154	0xbc522cf5	-0.012828101
155	0xbd9bae4b	-0.07601603
156	0x3e1dfbb7	0.15428053
157	0x3dae1f36	0.08502047
158	0x3c25095a	0.01007303
159	0xbe1e559d	-0.15462346
160	0xbd95a907	-0.0730763
161	0x3cebb202	0.028771404
162	0xbe0320d1	-0.12805487
163	0x3d81a97e	0.06331156
164	0xbe4ab41f	-0.19795273
165	0xbe16b823	-0.1471868
166	0xbeac4322	-0.33644968
167	0x3ebcd913	0.36884364
168	0xbe16b11b	-0.14715998
169	0x3d0996a4	0.033590928
170	0x3cdfb95a	0.027310062
171	0xbcbbae19	-0.022910165
172	0xbe05712a	-0.1303145
173	0xbe2a9e7f	-0.16662024
174	0x3e301656	0.1719602
175	0x3e869e24	0.26292527
176	0x3b37edbd	0.0028065287
177	0x3dfc3f03	0.12316706
178	0xbdf97865	-0.121811666
179	0xbd23f46e	-0.04002803
180	0xbe4f2361	-0.2022834
181	0xbe3a2969	-0.18179859
182	0xbd376df0	-0.04478258
183	0xbd7bd4a0	-0.061482072
184	0x3e339ef0	0.17541099
185	0x3e0e76da	0.13912526
186	0x3defeff5	0.1171569
187	0xbee03b4f	-0.4379525
188	0x3e4290e6	0.19000587
189	0x3ec653fb	0.38735947
190	0x3e6e61e9	0.23279537
191	0x3db1430d	0.08655367
192	0xbdc54b37	-0.09633487
193	0x3d7b7ee5	0.061400313
194	0x3d4ffd46	0.05077865
195	0xbc851fce	-0.016250517
196	0xbc8ce81d	-0.017200524
197	0xbd84c93f	-0.06483697
198	0x3cb03f73	0.02151463
199	0x3de95076	0.113923
200	0x3c060718	0.008180402
201	0x3ca9e3d2	0.020738516
202	0xbce679ca	-0.028134245
203	0x3d08fa4d	0.03344183
204	0x3dd55b72	0.104178324
205	0xbe541911	-0.20712687
206	0x3d723ba8	0.059138924
207	0xbd6332b6	-0.055468284
208	0xbc18e69f	-0.009332328
209	0x3d00d420	0.0314523
210	0xbe056eeb	-0.13030593
211	0xbe3a6e07	-0.18206035
212	0xbcc296f3	-0.023753619
213	0x3c015336	0.007893374
214	0x3e34c7ff	0.17654417
215	0xbd179e28	-0.037016064
216	0xbd1819e1	-0.037134055
217	0x3e564c1f	0.20927475
218	0x3d06c0b6	0.032898627
219	0xbe2e0445	-0.16993816
220	0x3e647fd1	0.22314383
221	0x3e051967	0.12997971
222	0xbdcc68d8	-0.09980935
223	0x3da5116a	0.08059962
224	0xbdd023cb	-0.10163077
225	0xbdb0bf8a	-0.08630283
226	0x3bb3d2c3	0.0054877712
227	0xbd8025d2	-0.06257214
228	0xbd500fd6	-0.050796352
229	0xbe5f247b	-0.2179126
230	0xbe97236e	-0.29519218
231	0x3e49a683	0.19692425
232	0xbe39f4a5	-0.1815973
233	0x3c959ea9	0.018264132
234	0xbe65ce2b	-0.22441928
235	0xbcd64de0	-0.02616018
236	0x3d86f329	0.06589348
237	0xbd941c63	-0.07231977
238	0x3e34014e	0.17578623
239	0x3d892e6e	0.06698309
240	0x3db2f9c6	0.08739047
241	0xbd06c39e	-0.0329014
242	0x3e80c9a5	0.25153843
243	0xbd9a4ab8	-0.07533783
244	0xbe1f89b3	-0.15579872
245	0xbdb15648	-0.08659035
246	0x3e52d485	0.20588882
247	0xbe314df4	-0.17314893
248	0x3cbc6912	0.02299932
249	0x3df6ad66	0.12044792
250	0x3d2bceaf	0.041945156
251	0xbe2b28be	-0.1671476
252	0x3e91125c	0.2833432
253	0x3dfc0762	0.12306096
254	0x3cae21f1	0.021256419
255	0x3d207427	0.03917327
